data.pth (torch, 42282 bytes, 6 tensors)

l1.weight f4 [8, 838]
0	0x3ec6b30a	0.3880847
1	0x3ddc036c	0.1074284
2	0x3d647d7a	0.055783726
3	0x3e428f2f	0.18999933
4	0x3decb3f8	0.11557764
5	0x3e02778e	0.12740919
6	0x3e3f9b9a	0.18711701
7	0x3dbdbe8a	0.09264858
8	0xbd6352bf	-0.055498835
9	0x3db583a0	0.08862996
10	0x3e8062cc	0.25075376
11	0x3da83a33	0.082142256
12	0x3e371a99	0.1788124
13	0x3db6cc80	0.08925724
14	0x3ea20c6e	0.31650108
15	0x3e009ac5	0.1255904
16	0x402682dd	2.6017373
17	0x3fc6195b	1.5476488
18	0x3c069573	0.008214342
19	0xbdc65461	-0.09684063
20	0x3f0807b9	0.53136784
21	0x3daedd2f	0.08538281
22	0x3e42d976	0.19028267
23	0x3df43ffd	0.11926267
24	0x3e28fd29	0.16502823
25	0xbe03bb7a	-0.12864485
26	0xb7a7f34c	-2.0021245e-05
27	0x3f37c49d	0.71784383
28	0xbe257aef	-0.16160177
29	0x3f01f59e	0.5076541
30	0x3d39ccfb	0.0453615
31	0xbdaa5ca6	-0.083184525
32	0x3c3ff4c5	0.011716072
33	0x3e2a5ada	0.1663622
34	0x3e0a266e	0.13491222
35	0x3f93d257	1.1548566
36	0xbe18fa32	-0.14939192
37	0x3dac04e0	0.08399367
38	0x3d5ca442	0.053867586
39	0x3cd7af69	0.02632876
40	0x3c5f0479	0.013611906
41	0x3e39bbd6	0.1813806
42	0x3e28101e	0.16412398
43	0x3fdde816	1.7336452
44	0x3e9977e9	0.29974297
45	0x3f0c2a0a	0.54751647
46	0x3ee8e9aa	0.45490772
47	0xbc101c9b	-0.008795883
48	0x3de0ecea	0.10982688
49	0xbc16239b	-0.009163762
50	0xbd93825c	-0.072025985
51	0x3d5ed29d	0.054400075
52	0x3f2dca86	0.6788715
53	0x3e0e2155	0.13879903
54	0x3e9b162d	0.30290356
55	0xbd0ba504	-0.034092918
56	0x3d4b66db	0.049658637
57	0x3e0a46f3	0.13503627
58	0x3f2d8faf	0.6779737
59	0xbe5de2ef	-0.216686
60	0x3e9a516a	0.3014024
61	0xbc2d8c01	-0.010592462
62	0x3e1a642a	0.15077272
63	0x3e227e6c	0.15868539
64	0x3e66d832	0.2254341
65	0x3e02ef59	0.12786616
66	0x3ed538bb	0.41644844
67	0x3e01a356	0.12659964
68	0xbd542e2b	-0.05180184
69	0xbd0b33dd	-0.033985008
70	0x3e2a9cbc	0.16661352
71	0x3dd0edd0	0.10201609
72	0x3df83379	0.12119193
73	0xbe305756	-0.17220816
74	0xbe739623	-0.23787741
75	0x3deeb35e	0.11655305
76	0xbcd2fd41	-0.025755526
77	0xbe6f89ff	-0.23392485
78	0xbc9c11d0	-0.019051462
79	0x3da4d2c5	0.080480136
80	0x3e21c219	0.15796699
81	0x3d5b107b	0.053482514
82	0x3f0fe20b	0.5620429
83	0xbd442fb9	-0.047897074
84	0x3dabf2ba	0.08395906
85	0xbcd63473	-0.026148057
86	0x3e9c6327	0.30544397
87	0x3f7a2268	0.9770875
88	0x3ec6ddb0	0.3884101
89	0xbd140354	-0.036135986
90	0x3f066238	0.5249362
91	0xbd811c9a	-0.063042834
92	0x3daaf0ff	0.083467476
93	0x3df2a7f0	0.11848438
94	0x3d81aeb9	0.06332154
95	0xbbe26dd8	-0.006910067
96	0xbd2897c5	-0.041160364
97	0x3e024a87	0.12723742
98	0x3fe897d9	1.817134
99	0x3d5d6913	0.054055285
100	0x3e025e8f	0.12731384
101	0x3e7a8cd8	0.2446779
102	0xbc0496e8	-0.0080926195
103	0x3dbeacd8	0.09310311
104	0xbddb1d71	-0.10698975
105	0x3e7bbc93	0.24583654
106	0x3f7bfecd	0.9843567
107	0x3ffa93c4	1.9576344
108	0xbe21775b	-0.15768187
109	0x3d9eafa5	0.07748345
110	0x3e84eb4a	0.2596076
111	0x3de9937c	0.114050835
112	0x3da87d08	0.08226973
113	0xbe05e234	-0.13074571
114	0x3e1ceeba	0.15325442
115	0x3f850026	1.039067
116	0x402a5536	2.6614509
117	0x3e4dbf4c	0.20092505
118	0x3f4890f5	0.78346187
119	0x3e0f2de9	0.13982357
120	0xbddf4bd5	-0.10903136
121	0x3e9c9d61	0.3058882
122	0x3e90a57a	0.2825125
123	0x3fba9d13	1.4579185
124	0x3eafe135	0.34351507
125	0xbc6a489d	-0.014299539
126	0xbe5cdd17	-0.21568714
127	0x3e1cd113	0.1531413
128	0x3db4a651	0.08820785
129	0xbe34c23c	-0.1765222
130	0xbdf1d185	-0.11807541
131	0x3e2dcbb6	0.16972241
132	0xbc2d85ce	-0.010590984
133	0x3dcd5084	0.10025123
134	0x3e3a7898	0.18210065
135	0x3edddcb8	0.43332458
136	0x3df1f845	0.11814932
137	0x3e7e8434	0.24855119
138	0x3f190cf2	0.5978538
139	0x3f03bf02	0.5146333
140	0x3e038564	0.12843853
141	0x3e4ad43e	0.19807526
142	0x3e39888d	0.18118496
143	0x4003c7b1	2.0590632
144	0x401a293f	2.4087675
145	0x3ef96951	0.48713163
146	0xbdbbeb62	-0.09175755
147	0x3f01bc10	0.50677586
148	0x3e566d06	0.20940027
149	0xbde4ba01	-0.1116829
150	0xbe54ee18	-0.2079395
151	0x3f0709f6	0.52749574
152	0x40246039	2.568373
153	0xbbaf5f56	-0.005351941
154	0x3dbb0788	0.09132296
155	0xbd6ba011	-0.057525698
156	0x3d2ca0a7	0.042145398
157	0x3dbdbd14	0.092645794
158	0x3d7d68f7	0.06186768
159	0x3dec3551	0.11533607
160	0x3f2ed765	0.68297416
161	0x3f40d98b	0.75331944
162	0x3eb7b32c	0.35878885
163	0x3e48edfb	0.19622032
164	0x3e27bb4d	0.16380043
165	0xbdd80910	-0.105486035
166	0x3f118dbb	0.5685689
167	0x3df7b231	0.12094534
168	0x3df074f5	0.11741058
169	0x3e83fbd2	0.2577806
170	0x40034e76	2.0516639
171	0x3d1a761d	0.037710298
172	0xbe450858	-0.19241464
173	0xbe52f489	-0.20601095
174	0x3d9f0506	0.0776463
175	0xbd0fc2ac	-0.035097763
176	0x3e437246	0.1908656
177	0xbe5e0546	-0.21681699
178	0xbd68c3c4	-0.05682732
179	0x3f61c9ae	0.88198364
180	0x3d84e908	0.0648976
181	0xbe2d8dae	-0.16948578
182	0x3bbb60e5	0.005718338
183	0x3cf5e48c	0.030016206
184	0xbca04373	-0.019563412
185	0x3e1e2892	0.15445164
186	0x3dc1c570	0.09461486
187	0x3df17ec1	0.117917545
188	0xbde3fecd	-0.11132584
189	0xbe122613	-0.14272337
190	0xbbd3b683	-0.006460966
191	0xbe0edc63	-0.13951258
192	0x3ee9e694	0.4568373
193	0xbd7112ba	-0.05885575
194	0x3ee08440	0.438509
195	0x3e06545c	0.13118118
196	0x3e1b90bc	0.1519193
197	0x40003a07	2.0035417
198	0x3e97fc20	0.29684544
199	0xbe499669	-0.19686283
200	0x3e46d362	0.19416574
201	0x3db0d02b	0.08633455
202	0x3faa01af	1.3281764
203	0xbbefa6d7	-0.00731359
204	0x3f35acbd	0.709667
205	0xbdc64dca	-0.09682806
206	0x3c837b01	0.016049864
207	0x3e873a28	0.26411557
208	0x3dba4c66	0.09096603
209	0x3f43ac6c	0.7643497
210	0x3f02c0aa	0.5107523
211	0x3e713b61	0.23557808
212	0x3e2e76dd	0.1703753
213	0xbd29c392	-0.041446276
214	0x3e889c23	0.26681623
215	0xbdcaf360	-0.09909701
216	0x3f796082	0.97412884
217	0xbbe66e3b	-0.0070321835
218	0xbd20cc4e	-0.03925734
219	0xbd35253c	-0.044224963
220	0xbdb13542	-0.08652736
221	0xbdc8182c	-0.097702354
222	0x3df77dd7	0.12084549
223	0xbd572403	-0.052524578
224	0x3e4c8320	0.19971895
225	0xbc8857e2	-0.016643468
226	0xbdfd7a06	-0.1237679
227	0xbe0c1549	-0.13679995
228	0x3c011812	0.007879274
229	0x3e55e025	0.20886286
230	0x3e00be2b	0.12572543
231	0x3e15ae9d	0.14617391
232	0x3e31320a	0.17304245
233	0x3eaf3c92	0.342259
234	0xbc56de68	-0.013114549
235	0x3df608e9	0.12013418
236	0xbbf9ca42	-0.007622988
237	0x3e00c9b2	0.1257694
238	0xbb7cd274	-0.0038577588
239	0x3d98b283	0.074559234
240	0x3edbe8cc	0.42951047
241	0xbd9a0dcb	-0.07522162
242	0x3e40b0ea	0.18817487
243	0xbd6c19b2	-0.057641692
244	0xbc6423af	-0.013924523
245	0xbcc1ddb5	-0.023665288
246	0x3b1b98d1	0.0023742209
247	0x3f3fdf38	0.7494998
248	0x3e8ddd75	0.2770802
249	0x3e1c0383	0.15235715
250	0x3ec8f70b	0.3925098
251	0xbd573ab1	-0.052546207
252	0x3e49c3e3	0.19703631
253	0xbe595224	-0.2122274
254	0x3ece0ae9	0.402427
255	0x3e8144bc	0.25247753

l1.bias f4 [8]
0	0x40278e4a	2.6180596
1	0x3fa3f24f	1.2808322
2	0x403d74d0	2.9602547
3	0x4077bff3	3.8710907
4	0x3f3eb54e	0.744954
5	0x4069442b	3.6447856
6	0x3fa5c57a	1.295089
7	0x40471457	3.1106164

l2.weight f4 [8, 8]
0	0x3f0427d8	0.51623297
1	0xbebb6fdc	-0.3660878
2	0xbebb39f8	-0.36567664
3	0x40070e97	2.1102655
4	0x3fd75634	1.6823182
5	0x3fe6f391	1.804308
6	0x3fb367b4	1.4016023
7	0x3e98beaf	0.2983298
8	0x3d415a9f	0.047205564
9	0xbe0abd93	-0.1354888
10	0xbe4c9525	-0.19978769
11	0x39d59727	0.00040739143
12	0xbe988bc1	-0.29794124
13	0xbe91cc1e	-0.28476042
14	0xbd728d14	-0.059216574
15	0xbeb296de	-0.34880728
16	0x3f5ef6cb	0.87095326
17	0xbeca3674	-0.3949467
18	0x400f0497	2.2346551
19	0x400daa3f	2.213516
20	0xbebf4543	-0.3735753
21	0x40162c40	2.3464508
22	0x3e9f6b3b	0.31136498
23	0x3ffd5e46	1.9794395
24	0x3fbd5a42	1.479317
25	0x3f784ac0	0.9698906
26	0x3ff81ac2	1.9383166
27	0x405cce0e	3.4500766
28	0x3fee3bf9	1.8612052
29	0x4062904c	3.5400572
30	0x401e3c29	2.472422
31	0x40445e2b	3.0682476
32	0x403344de	2.8010783
33	0x3feddd68	1.8583193
34	0x3fd10a02	1.6331179
35	0x40208b09	2.508486
36	0xbd44e9c8	-0.048074514
37	0x4007e497	2.123327
38	0x3ef8d505	0.4860002
39	0x4023f1da	2.5616364
40	0x40183538	2.3782482
41	0x3e3e1c97	0.18565594
42	0x402e2960	2.7212753
43	0x4049b6f7	3.1517923
44	0x3cbca3a5	0.02302725
45	0x405bcf83	3.4345405
46	0x3e526ff3	0.20550518
47	0x3fa657de	1.2995565
48	0x3f4d64ce	0.8023194
49	0x3fbd19ea	1.4773533
50	0x3fd664b2	1.674948
51	0x3dbe9326	0.0930541
52	0xbdec5d39	-0.11541218
53	0xbee72f21	-0.45153144
54	0xbf351e06	-0.7074894
55	0x4007eb74	2.123746
56	0x402cc6b8	2.6996288
57	0x3faac253	1.3340553
58	0xbf19280d	-0.5982674
59	0x3ffdc518	1.9825773
60	0xbf49bda0	-0.7880497
61	0x3ffa749f	1.956684
62	0xbf178d76	-0.5920023
63	0x3f87170a	1.0553906

l2.bias f4 [8]
0	0x3f3b8437	0.7324862
1	0xbe8fe5b7	-0.28104946
2	0x3f67d8fe	0.9056548
3	0x3fc15564	1.5104184
4	0x3f4f7ea3	0.8105261
5	0x3f5fe227	0.87454456
6	0x3f5111c6	0.81667745
7	0x3ee99603	0.45622262

l3.weight f4 [4, 8]
0	0xc00e288d	-2.221225
1	0xbeae003f	-0.33984563
2	0xbda2ddac	-0.07952437
3	0xc08a479d	-4.321242
4	0xc0781d4f	-3.8767889
5	0xbf9548d2	-1.1662848
6	0x3ec4730e	0.3836903
7	0xc01cd281	-2.4503481
8	0xbf0ff268	-0.5622926
9	0x3e6b9c24	0.23008782
10	0xbfb32b7e	-1.3997648
11	0xc09a266e	-4.817191
12	0xc08679f2	-4.202386
13	0xbf34349b	-0.7039277
14	0xbfea3f01	-1.8300477
15	0xbd699913	-0.05703075
16	0x3e53cc5b	0.20683424
17	0xbcba9444	-0.022775777
18	0xc0177568	-2.366541
19	0xbf9d1aad	-1.2273766
20	0xc06cd090	-3.7002296
21	0xc070d4fb	-3.7629993
22	0xbfc233d1	-1.5172063
23	0xc02a0c9d	-2.6570199
24	0xbfd214b7	-1.6412572
25	0xbdefddf3	-0.11712255
26	0xc05c6b77	-3.4440591
27	0xc048241a	-3.1272035
28	0xbf054898	-0.52063894
29	0xc08d0d08	-4.4078407
30	0x3dc3614d	0.09540043
31	0xbf06aff2	-0.5261222

l3.bias f4 [4]
0	0x3df08c07	0.11745458
1	0xbf150c94	-0.5822232
2	0x3e2e9b1e	0.1705136
3	0xbead7367	-0.33877108
